ppo_actor.pth (torch, 27228 bytes, 6 tensors)

layer1.weight f4 [64, 25]
0	0x3e1fbc53	0.15599184
1	0xbd0a36dd	-0.033743728
2	0x3dbc6dc9	0.09200627
3	0xbdf972aa	-0.121800736
4	0xbe0c4530	-0.13698268
5	0xbdc27d58	-0.09496564
6	0xbd407094	-0.046982363
7	0xbdb60927	-0.088884644
8	0x3e540bd7	0.20707642
9	0x3da3c6ab	0.07996877
10	0xbe181d86	-0.14855012
11	0xbc9b9ec8	-0.018996611
12	0x3d9f2262	0.0777023
13	0x3e059284	0.13044173
14	0x3d029a66	0.031885527
15	0xbc7baf3d	-0.015361604
16	0xbd6af2a1	-0.057360295
17	0xbe360f9b	-0.1777939
18	0xbdf1ff74	-0.11816302
19	0xbe0ad704	-0.13558584
20	0x3d8031ce	0.062594995
21	0x3e3f7fc4	0.18701082
22	0x3e546b3a	0.20744029
23	0x3e3bf023	0.18353324
24	0xbe39aa46	-0.1813136
25	0x3ddc4d62	0.10756947
26	0xbe059bd7	-0.1304773
27	0x3cc0dd5e	0.023543056
28	0x3d072e14	0.033002928
29	0xbb8e7e75	-0.004348571
30	0xbe28251a	-0.16420403
31	0x3e3e06d0	0.18557286
32	0x3d815d81	0.063166626
33	0xbd260ddc	-0.04054056
34	0x3dc95a6e	0.09831701
35	0x3d79d2f7	0.060992207
36	0x3e346a08	0.17618573
37	0x3d5bf693	0.05370195
38	0xbe1182a5	-0.14209993
39	0x3d2d72fe	0.042345993
40	0xbd174b13	-0.03693683
41	0xbd8a5bc6	-0.06755786
42	0x3e06c47e	0.13160893
43	0x3d9e67ea	0.07734664
44	0xbd90e6f4	-0.07075301
45	0x3e25dd90	0.161978
46	0xbde6c4f6	-0.11268036
47	0x3d40cf32	0.047072597
48	0x3e6526a5	0.22378023
49	0x3e169a43	0.14707284
50	0xbaee8a46	-0.0018199168
51	0xbda16367	-0.078802876
52	0xbdbfbeff	-0.093626015
53	0x3e2e407a	0.17016783
54	0xbe06ad0f	-0.13151954
55	0x3da03732	0.07823028
56	0x3d2b3115	0.041794855
57	0x3dbef1da	0.09323473
58	0x3e5a65d4	0.21327907
59	0xbe161df5	-0.14659865
60	0xbd351a24	-0.044214383
61	0xbd02b5d2	-0.03191168
62	0x3d00ca7a	0.031443097
63	0xbe2149a2	-0.15750745
64	0x3e4260d6	0.18982252
65	0x3e03a212	0.12854794
66	0xbc8f7a71	-0.01751444
67	0x3e326b5b	0.17423765
68	0x3dfd10e0	0.12356734
69	0xbe1463e0	-0.14491224
70	0x3b770759	0.0037693589
71	0xbdb58f23	-0.08865192
72	0x3ce291ca	0.027657408
73	0x3d847885	0.064683
74	0xbd83c6ce	-0.06434403
75	0xbe2d341d	-0.16914411
76	0xbdb7bfcd	-0.0897213
77	0x3dc9e4a2	0.098580614
78	0xbb9b57a0	-0.0047406703
79	0xbe16a21d	-0.14710279
80	0xbceccae8	-0.028905347
81	0xbcb9bed0	-0.022673994
82	0xbc5a4230	-0.013321444
83	0x3e1a8373	0.15089206
84	0xbe386015	-0.18005402
85	0xbde310b7	-0.110871725
86	0x3e2812d1	0.16413428
87	0xbc980b80	-0.018560171
88	0x3dd3b29e	0.10336803
89	0xbe19a93d	-0.15005966
90	0xbd88fc2c	-0.06688723
91	0x3d510a7c	0.05103539
92	0xbdadfab3	-0.08495083
93	0xbdab2efa	-0.083585694
94	0xbe22b54b	-0.1588947
95	0xbe28608b	-0.16443078
96	0x3e4c9415	0.19978364
97	0xbdcce0d3	-0.10003819
98	0x3dd2a71a	0.10285778
99	0x3d92109a	0.07132073
100	0xbda8bd7a	-0.08239265
101	0x3e1f035c	0.15528625
102	0x3dc3615b	0.095400535
103	0x3dca88d5	0.0988938
104	0x3e25d1c8	0.16193306
105	0xbc9b6dab	-0.018973192
106	0xbd98d83b	-0.07463118
107	0xbc529188	-0.01285208
108	0x3daaf491	0.083474286
109	0xbcedece2	-0.029043619
110	0xbdf8afe2	-0.12142922
111	0xbca41bd8	-0.020032808
112	0x3e061ba1	0.13096477
113	0x3d86eda1	0.06588293
114	0xbdff5a15	-0.12468354
115	0x3deafe39	0.114742704
116	0xbe083f72	-0.13305452
117	0x3da2889c	0.079362124
118	0xbe288597	-0.1645721
119	0x3dd2c5a7	0.102916054
120	0xbdc7acf9	-0.09749789
121	0xbe25add6	-0.16179594
122	0x3d858a11	0.06520475
123	0x3cafa22e	0.021439638
124	0x3b82dae9	0.0039933813
125	0x3df12e77	0.117764406
126	0x3d1daae6	0.03849306
127	0xbd0c87b4	-0.034309104
128	0x3e11fded	0.14257021
129	0x3e11ac10	0.14225793
130	0xbe1ebb15	-0.15501054
131	0xbd0d0028	-0.034423977
132	0xbe321e02	-0.1739426
133	0x3d9df536	0.07712786
134	0xbe335151	-0.17511488
135	0x3d408eac	0.047011063
136	0x3e3bce46	0.18340406
137	0x3e14355b	0.14473478
138	0x3e43b569	0.19112171
139	0x3df9f544	0.12204984
140	0x3d9e8c65	0.07741622
141	0x3e16f6bf	0.14742564
142	0xbe18d8a9	-0.149264
143	0x3e2e2c71	0.1700914
144	0x3e581f67	0.21105729
145	0xbd46464d	-0.048406888
146	0xbd89ff2c	-0.06738123
147	0xbd22c9a8	-0.039743096
148	0x3cbde096	0.02317838
149	0xbc861805	-0.016368875
150	0x3e0a01b5	0.13477214
151	0xbb9d310d	-0.004797107
152	0x3dc6e056	0.097107574
153	0x3cf542fc	0.029939167
154	0xbb9f6c8e	-0.0048652356
155	0x3cd47fc4	0.02593983
156	0xbcb66c1e	-0.022268351
157	0x3c9f0e83	0.0194161
158	0xbe531533	-0.20613556
159	0xbb8a6544	-0.0042234976
160	0x3dcbba26	0.09947614
161	0x3e01c568	0.12672961
162	0xbe4e7bd8	-0.2016443
163	0xbd117f18	-0.035521597
164	0xbda688a6	-0.08131532
165	0x3d2ef5aa	0.042714752
166	0xbd9ef672	-0.077618495
167	0x3d35785b	0.044304233
168	0x3e29987e	0.16562077
169	0xbe238cbf	-0.15971659
170	0xbe2143a0	-0.15748453
171	0x3c581c5c	0.013190355
172	0x3ce2fa1a	0.027707148
173	0xbe05352e	-0.13008568
174	0xbdaa4357	-0.08313625
175	0xba27d054	-0.0006401588
176	0xbdfeab2f	-0.124349944
177	0xbd15a1bc	-0.036531195
178	0x3e04b323	0.1295896
179	0xbd2de964	-0.042458907
180	0xbca26ade	-0.019826349
181	0xbe3fef68	-0.1874367
182	0xbe041f6c	-0.12902611
183	0x3a52e16c	0.0008044455
184	0xbd85cfc5	-0.065337695
185	0xbd95ff9c	-0.07324144
186	0x3e26ae6a	0.16277471
187	0x3e3bb766	0.1833168
188	0xbd3c1765	-0.04592075
189	0xbd57f5c4	-0.052724615
190	0x3bd62afc	0.006535886
191	0xbe3d042b	-0.18458621
192	0xbd891ca9	-0.066949196
193	0xbc3b607b	-0.011436577
194	0x3da91a4d	0.082569696
195	0x3e4981e3	0.19678454
196	0x3e335848	0.17514145
197	0xbdc763ff	-0.097358696
198	0xbd269975	-0.04067369
199	0x3d3d107f	0.04615831
200	0xbe48d1d5	-0.19611295
201	0xbd183a48	-0.037164956
202	0x3ca34368	0.019929603
203	0xbe355092	-0.17706516
204	0x3ca339f0	0.019925088
205	0x3e0c82ad	0.13721724
206	0x3e28bf73	0.16479282
207	0x3e2baa09	0.16764082
208	0x3e1cfc79	0.15330686
209	0xbca55528	-0.020182207
210	0xbd1d2b88	-0.038371593
211	0xbd2e4300	-0.042544365
212	0xbdb710f3	-0.0893878
213	0x3ddfd6c2	0.10929634
214	0x3e49b0e9	0.19696392
215	0xbe491a68	-0.1963898
216	0xbdf0f980	-0.11766338
217	0x3e46c3f1	0.19410683
218	0x3db4c5ba	0.08826776
219	0x3d9c9f5a	0.076475814
220	0xbd8ba1e0	-0.068179846
221	0x3d8984c6	0.06714778
222	0xbe4206c8	-0.189479
223	0xbe29bba8	-0.16575491
224	0x3e0cbc67	0.13743745
225	0xbd74236a	-0.059604086
226	0x3e43c015	0.19116242
227	0xbd4c6e04	-0.049909607
228	0x3d93a35e	0.07208894
229	0x3cb01715	0.021495381
230	0x3e3654b6	0.17805752
231	0xbd9c9ecb	-0.07647475
232	0xbd4edda9	-0.05050436
233	0xbdf47577	-0.11936467
234	0xbca0808d	-0.019592548
235	0xbdfd914e	-0.1238123
236	0x3e2be94a	0.16788211
237	0xbdf1bf22	-0.11804034
238	0xbdd094fb	-0.10184666
239	0x3de958d8	0.11393899
240	0x3e464dfc	0.19365686
241	0xbe250903	-0.16116719
242	0x3e220987	0.15823947
243	0x3e50e73f	0.20400713
244	0xbdb578b4	-0.08860913
245	0x3e54885c	0.20755142
246	0xbd454494	-0.048161104
247	0x3e2bf30c	0.16791934
248	0xbceae654	-0.028674282
249	0x3dd74b09	0.10512359
250	0x3e100fb2	0.14068487
251	0x3e074164	0.13208538
252	0xbe0a1515	-0.13484605
253	0xbe104b09	-0.14091124
254	0x3e097d54	0.13426715
255	0x3e612ce3	0.21989779

layer1.bias f4 [64]
0	0x3e5a27d5	0.21304257
1	0x3ddd0f0d	0.10793886
2	0xbd9d2e2f	-0.076748244
3	0xbdc99a50	-0.09843886
4	0xbca83eba	-0.020537723
5	0x3ce5b91b	0.028042367
6	0x3e3e6a38	0.18595207
7	0x3dd56c28	0.1042102
8	0xbd53f118	-0.051743597
9	0xbbf3b47f	-0.0074372883
10	0xbc3a586d	-0.011373621
11	0xbd949fc8	-0.07257038
12	0x3e357fb4	0.17724496
13	0xbd276714	-0.040869787
14	0xbdcc383a	-0.09971662
15	0xbdce328a	-0.10068233
16	0xbc9eee58	-0.01940076
17	0x3de9db92	0.11418833
18	0xbe4a0928	-0.19730055
19	0x3daeef10	0.08541691
20	0xbdac9010	-0.08425915
21	0xbd8eb2f0	-0.06967723
22	0x3e2babd3	0.16764764
23	0xbd412340	-0.047152758
24	0x3e2096b0	0.15682483
25	0x3dbd03e2	0.09229256
26	0x3dec31c8	0.115329325
27	0xbd865c66	-0.06560592
28	0xbe3e189f	-0.1856408
29	0x3dc92b31	0.09822691
30	0x3dcbcbc2	0.09950973
31	0xbd29e39a	-0.041476823
32	0xbe41be1b	-0.18920176
33	0x3e054b67	0.13017045
34	0x3da65cb2	0.08123149
35	0x3e289f31	0.16466977
36	0xbe499f35	-0.19689639
37	0xbe47f632	-0.1952751
38	0x3dd28b26	0.10280447
39	0x3dfc7f53	0.12328973
40	0xbe411a4a	-0.18857685
41	0x3e21f441	0.15815832
42	0xbd321e9f	-0.043486234
43	0x3e11d6c7	0.14242087
44	0x3e1fcae7	0.15604745
45	0x3e1236c1	0.142787
46	0x3df598ef	0.119920604
47	0x3d49892c	0.049203083
48	0x3e3d2552	0.18471268
49	0x3e2b8529	0.16750015
50	0xbd84b5fc	-0.06480023
51	0xbe09d3ca	-0.13459697
52	0x3e1ce429	0.15321411
53	0xbda05dd7	-0.078303985
54	0x3c422ca0	0.01185146
55	0x3dbef83e	0.09324692
56	0xbd2a12f8	-0.041521996
57	0x3df4f022	0.11959864
58	0x3d918899	0.07106132
59	0xbc4d6c43	-0.012538019
60	0x3e5456ed	0.20736285
61	0x3ca40ed6	0.020026606
62	0x3da99f6e	0.08282362
63	0xbca51c06	-0.020154964

layer2.weight f4 [64, 64]
0	0xbd17ecf8	-0.037091225
1	0x3c5c91f0	0.013462529
2	0x3d84f27c	0.06491563
3	0x3ddb2ae6	0.107015416
4	0x3ce01330	0.0273529
5	0xbd4f52d0	-0.050616086
6	0x3dea4516	0.11438958
7	0xbc477870	-0.012174711
8	0xbd3242a4	-0.043520585
9	0xbd9dd82c	-0.07707247
10	0x3d4a06dc	0.049322948
11	0xbddcf782	-0.10789396
12	0xbdf531b4	-0.11972371
13	0xbda6de8a	-0.08147915
14	0xbdcabe7a	-0.09899612
15	0x3d9b19d0	0.07573283
16	0x3d3800cc	0.044922635
17	0xbba33a40	-0.004981309
18	0x3dae9ec8	0.08526379
19	0xbc41ac20	-0.011820823
20	0xbdd49ca8	-0.10381442
21	0x3c9cc4e0	0.019136846
22	0xbd73edcc	-0.059552953
23	0x3dae5106	0.08511548
24	0x3c54e580	0.01299417
25	0x3df39c0a	0.118949965
26	0x3d155fdc	0.03646837
27	0x3ce1f898	0.027584359
28	0xbbbc2080	-0.005741179
29	0xbda36b6a	-0.07979472
30	0xbd46175c	-0.04836212
31	0xbd9db660	-0.07700801
32	0x3d452d14	0.048138693
33	0x3c72f960	0.014829963
34	0x3dc985c6	0.098399684
35	0x3dc3eb90	0.09566414
36	0xbdc9ed68	-0.09859735
37	0xbc16b610	-0.0091986805
38	0x3d24a1a8	0.04019323
39	0x3c216740	0.009851277
40	0xbd39aa90	-0.045328677
41	0x3dd86b56	0.10567348
42	0x3cdf5f68	0.027267173
43	0x3d1a348c	0.03764777
44	0x3dee9180	0.11648846
45	0xbc469d40	-0.012122452
46	0x3c9ddbc0	0.019269824
47	0xbd40095c	-0.046883926
48	0xbd9f1bec	-0.077689976
49	0x3ceeb9b8	0.029141292
50	0x3db3ece2	0.08785416
51	0x3bd53f60	0.006507799
52	0xbcf68118	-0.030090854
53	0x3cee8870	0.029117793
54	0x3d1465b4	0.036229804
55	0xbd728120	-0.059205174
56	0x3dd1a0bc	0.10235736
57	0xbdedbf98	-0.11608809
58	0xbdb94f0a	-0.09048279
59	0x3db56cce	0.088586435
60	0xbd80cf74	-0.062895685
61	0x3d94f16a	0.072726086
62	0xbd60e110	-0.054902136
63	0xbca74d18	-0.020422503
64	0xbd4b5340	-0.04963994
65	0xbdadc470	-0.08484733
66	0x3d17bd90	0.037046015
67	0x3d573538	0.052540988
68	0x3de04f10	0.1095258
69	0x3dde697a	0.10859962
70	0x3d3ad13c	0.045609698
71	0xbd3191ec	-0.043352053
72	0x3dc90b7c	0.098166436
73	0xbdfd0e98	-0.12356299
74	0xbdbb265e	-0.09138177
75	0x3d537220	0.05162251
76	0xbd4b7854	-0.0496753
77	0x3d419ca8	0.04726854
78	0xbd6adc40	-0.057338953
79	0x3dae0284	0.084965736
80	0xbd192568	-0.03738919
81	0x3df80da6	0.12111978
82	0x3d3fabbc	0.046794638
83	0x3d5bfdf4	0.053708985
84	0x3da28a0c	0.079364866
85	0x3cf79ea0	0.030227005
86	0x3c8a8270	0.0169079
87	0x3df0b84e	0.11753903
88	0xbd3123a0	-0.043246865
89	0xbd527338	-0.051379412
90	0xbdb7cdc6	-0.08974795
91	0xbdfa4c24	-0.12221554
92	0x3dd969e8	0.10615903
93	0xbc78a480	-0.015175939
94	0x3da52586	0.08063798
95	0xbd29e864	-0.04148139
96	0x3d43e7e4	0.04782857
97	0xbd9b8310	-0.075933576
98	0xbd16f650	-0.036855996
99	0xbd04d6d0	-0.032431424
100	0xbde1c1b0	-0.11023271
101	0x3bd0e580	0.006375015
102	0x3c08ca10	0.008348957
103	0xbc3fb240	-0.011700213
104	0x3dfc1382	0.12308408
105	0xbd15a1d0	-0.03653127
106	0x3d09b5f4	0.03362079
107	0x3d10eea8	0.03538385
108	0x3c26c3e0	0.010178536
109	0x3db13f82	0.08654691
110	0xbde5f996	-0.11229245
111	0x3de2035c	0.11035797
112	0x3db259d8	0.087085426
113	0xbd143a5c	-0.03618847
114	0xbd810ef2	-0.06301679
115	0xbd94ca54	-0.072651535
116	0x3d4889f0	0.048959672
117	0x3cce6988	0.025196806
118	0x3c496d70	0.012294158
119	0x3ce49598	0.027903363
120	0x3d8b8532	0.06812514
121	0x3d8a2304	0.0674496
122	0x3c971d00	0.018446445
123	0xbde47390	-0.11154854
124	0x3ccea428	0.02522476
125	0xbd048478	-0.032352895
126	0x3d38e370	0.045138776
127	0xbbfa4b00	-0.007638335
128	0x3dfd8d30	0.12380445
129	0x3dbccde6	0.092189595
130	0x3d36afe0	0.04460132
131	0x3d0efe84	0.034910694
132	0xbd5aafd4	-0.05339034
133	0x3d48a818	0.04898843
134	0xbcc735a8	-0.024317577
135	0xbdaf360e	-0.08555232
136	0x3d720ea8	0.05909601
137	0xbd1005d4	-0.035161808
138	0x3df164c0	0.11786795
139	0xbd5ce40c	-0.05392842
140	0xbd63b240	-0.055589914
141	0x3de8082c	0.11329684
142	0xbd074d04	-0.033032432
143	0xbb46f140	-0.0030356199
144	0x3da7a0c6	0.08184962
145	0xbb2da6c0	-0.0026497096
146	0x3d2be6d8	0.041968197
147	0xbda653f2	-0.0812148
148	0xbd3474ec	-0.044056818
149	0xbdd810cc	-0.10550079
150	0xbcbf5c08	-0.023359314
151	0x3db3147e	0.08744143
152	0x3c1494d0	0.009068683
153	0x3dbd0cac	0.092309326
154	0x3dce1292	0.10062136
155	0xbd77a694	-0.060461596
156	0x3d5a780c	0.053337142
157	0xbd9bc468	-0.07605821
158	0x3d4d02a8	0.05005136
159	0xbcf45010	-0.029823333
160	0xbc249000	-0.010044098
161	0x3de3f77e	0.1113119
162	0x3c81f670	0.01586458
163	0x3ca99e90	0.020705491
164	0xbc5d4090	-0.013504162
165	0xbdca2bcc	-0.09871635
166	0xbdc4b6e8	-0.09605199
167	0xbd6b1e30	-0.057401836
168	0x3dc8b426	0.097999856
169	0x3c5eb890	0.013593808
170	0xbd94dd40	-0.072687626
171	0x3de0ad4e	0.10970555
172	0x3dc65744	0.09684613
173	0xbd3d67e4	-0.046241656
174	0xbdbd3e06	-0.09240346
175	0xbda3c310	-0.079961896
176	0xbdfd4e78	-0.12368482
177	0x3c1d13a0	0.0095871985
178	0x3de640c0	0.11242819
179	0xbd727008	-0.059188873
180	0x3d4baf10	0.0497275
181	0x3d0cf430	0.034412563
182	0x3d6edc10	0.058315337
183	0xbdbb8d68	-0.091578305
184	0xbdbb0dc6	-0.091334864
185	0x3d995756	0.07487361
186	0xbdc340f6	-0.09533875
187	0x3dc28d34	0.094995886
188	0xbd3f4360	-0.046695113
189	0xbdb4a3b2	-0.08820285
190	0xbdc8019e	-0.097659335
191	0xbcc44d10	-0.023962528
192	0x3e0b8cce	0.13627931
193	0x3dc6f52b	0.09714731
194	0x3da14491	0.07874406
195	0x3dbdb530	0.092630744
196	0x3d037f30	0.032103717
197	0xbd462650	-0.04837638
198	0xbda28c80	-0.079369545
199	0x3db10d4e	0.08645116
200	0xbdd03dd8	-0.10168046
201	0x3c67de9f	0.014152198
202	0x3d8e9201	0.06961442
203	0x3e0ed458	0.1394819
204	0x3d72d6c2	0.05928684
205	0x3bd25fc0	0.0064201057
206	0x3d8bfddc	0.06835529
207	0xbd2dc00c	-0.04241948
208	0x3d75854c	0.059941575
209	0x3d16a920	0.036782384
210	0x3dca199a	0.09868164
211	0x3d330e8e	0.043715052
212	0xbdabd620	-0.083904505
213	0x3dc7ffe0	0.09765601
214	0xbb89d300	-0.0042060614
215	0xbdebaf44	-0.11508039
216	0x3e160554	0.1465047
217	0xbdbbffc8	-0.09179646
218	0x3afbf9f4	0.0019224272
219	0x3e0ba160	0.13635778
220	0x3dd97dc8	0.10619694
221	0x3dbe8892	0.093033925
222	0xbb96d680	-0.004603207
223	0x3dca6f47	0.09884506
224	0xbcbbf1f8	-0.022942528
225	0x3cc9d473	0.024637436
226	0xbd2cf028	-0.04222122
227	0x3dfc48c2	0.12318565
228	0xbd6d2708	-0.05789855
229	0x3dd7c6ea	0.10535987
230	0xbddf40c2	-0.109010234
231	0x3dcc4d6b	0.09975704
232	0x3cc3f880	0.023922205
233	0xbd1a1194	-0.03761442
234	0xbc2519c9	-0.010076948
235	0xbd2188eb	-0.039437216
236	0x3d8a886c	0.06764302
237	0x3d122f80	0.03568983
238	0x3d884b03	0.06654932
239	0xbd2f6b62	-0.042827018
240	0x3d43e904	0.047829643
241	0x3d6279de	0.055292003
242	0x3db94668	0.09046632
243	0x3de66cd8	0.11251229
244	0xbd494b90	-0.049144328
245	0xbc963050	-0.018333584
246	0xbdbbe082	-0.09173681
247	0x3d57d7b6	0.052695952
248	0x3d7cdf54	0.06173642
249	0x3de522bc	0.11188266
250	0xbdbb624c	-0.09149608
251	0xbd5a953c	-0.053364977
252	0x3c65c149	0.014023134
253	0x3e0ca8fb	0.13736336
254	0x3b842b7d	0.0040335045
255	0xbd1d9571	-0.038472597

layer2.bias f4 [64]
0	0xbde0a7ec	-0.109695286
1	0x3a06a100	0.0005135685
2	0xbc4f5ec0	-0.0126568675
3	0xbd9c2a89	-0.076253004
4	0xbd6334f4	-0.055470422
5	0x3d81cc8a	0.06337841
6	0x3dd197b3	0.102340125
7	0xbbc93a5c	-0.00614099
8	0x3d90cdc9	0.070705004
9	0xbd42711a	-0.047471143
10	0x3be5a340	0.0070079863
11	0x3d16d65d	0.036825527
12	0x3cd40f4a	0.025886197
13	0xbcba64d8	-0.022753164
14	0xbc84530c	-0.016152881
15	0x3e01f0f4	0.12689573
16	0x3e07ffca	0.1328117
17	0xbd3bd58a	-0.045857944
18	0xbdf16a8a	-0.11787899
19	0x3ddb28da	0.10701151
20	0x3d7d4f68	0.061843306
21	0xbdd6beee	-0.10485636
22	0x3ca3dab0	0.02000174
23	0x3d242f4e	0.040084176
24	0x3c4d0a45	0.0125146555
25	0xbdf942d4	-0.121709496
26	0x3d7fc67f	0.06244516
27	0xbcd41af4	-0.025891759
28	0xbdb461f2	-0.08807744
29	0xbdd175d7	-0.10227554
30	0xbdc6d130	-0.09707868
31	0x3aefafb9	0.0018286622
32	0x3de304a7	0.11084872
33	0x3dfb6a0e	0.12276088
34	0x3df2c9f7	0.11854928
35	0xbd448bcc	-0.047984883
36	0x3d61d640	0.055135965
37	0x3db157a5	0.08659295
38	0xbdf5959d	-0.11991427
39	0x3dc65e0e	0.09685908
40	0x3e102c47	0.1407939
41	0xbc5cee83	-0.0134846
42	0xbdde52fe	-0.10855673
43	0x3cf932e8	0.030419782
44	0xbdf1b62e	-0.11802326
45	0x3cb3a98f	0.021931438
46	0x3d8bf4d6	0.06833808
47	0x3c5b5773	0.013387549
48	0x3baba020	0.0052375942
49	0xbdc5fe25	-0.09667615
50	0x3dbcb178	0.09213537
51	0x3dd1210c	0.10211381
52	0x3c859d3a	0.016310323
53	0xb99e4b6b	-0.000301923
54	0xbcc706b0	-0.024295181
55	0x3db97fc9	0.09057576
56	0x3df11cd9	0.117730804
57	0x3cafe738	0.021472558
58	0x3decdb23	0.115652345
59	0xbccefef2	-0.025268052
60	0x3c08a9fb	0.008341308
61	0xbdce9c4d	-0.10088406
62	0x3d36ec29	0.044658814
63	0xbb08a6c0	-0.0020851344

layer3.weight f4 [5, 64]
0	0x3d0ccf08	0.034377128
1	0x3df1640c	0.117866606
2	0x3d65cfa0	0.05610621
3	0xbdb2e863	-0.087357305
4	0x3da236de	0.07920621
5	0x3d25d697	0.040487852
6	0x3a87cf92	0.0010361543
7	0xbd6c933c	-0.0577576
8	0xbd644104	-0.055726066
9	0x3dd8aad2	0.105794564
10	0xbccbef28	-0.024894312
11	0x3dba35ec	0.09092316
12	0xbd8a7b60	-0.06761813
13	0xbc4f89d0	-0.012667134
14	0x3cd18887	0.025577797
15	0x3d59d2e2	0.05317963
16	0xbddb63c5	-0.10712389
17	0xbc6377f7	-0.013883582
18	0xbcad7128	-0.021172121
19	0xbdb9fd96	-0.09081571
20	0x3b0e2bdc	0.0021693623
21	0x3dd4cfea	0.10391219
22	0xbd92c10b	-0.07165726
23	0xbd67358e	-0.056447558
24	0x3bc8caf3	0.006127709
25	0xbdacd23c	-0.084385365
26	0xbcc32c1e	-0.023824748
27	0xbe172a8a	-0.14762321
28	0xbda9a62a	-0.082836464
29	0xbd8fb598	-0.07017058
30	0x3bd44920	0.0064784437
31	0xbdeb0199	-0.11474914
32	0x3d9166d4	0.07099691
33	0xbc1e657b	-0.0096677495
34	0xbd8020b1	-0.062562354
35	0x3dd3c7b0	0.10340822
36	0xbc2f0c90	-0.0106841475
37	0xbdaebb79	-0.08531851
38	0x3b7a684c	0.0038209138
39	0xbdc76346	-0.09735732
40	0xbd226dcb	-0.039655488
41	0xbd9357a7	-0.07194453
42	0x3d96dcac	0.073663086
43	0x3c6c7db9	0.0144342715
44	0xbde7425c	-0.11291954
45	0xbe189b5d	-0.14903016
46	0xbce97f27	-0.028503014
47	0xbdac11df	-0.08401846
48	0xbda9e890	-0.08296311
49	0xbda790a7	-0.08181887
50	0xbc824dc8	-0.01590623
51	0x3dd16d18	0.10225886
52	0x3c412629	0.011788883
53	0x3db18a1f	0.08668923
54	0xbdc3f3f0	-0.09568012
55	0x3d28c9e5	0.041208167
56	0xbda0c291	-0.078496106
57	0x3dc92a9e	0.09822582
58	0x3daf321f	0.08554482
59	0xbda1f106	-0.079073
60	0x3d7d96e7	0.06191149
61	0xbe02f70c	-0.12789553
62	0x3d1f29ff	0.03885841
63	0x3cb26898	0.02177839
64	0x3d549bf8	0.051906556
65	0xbdf58746	-0.11988692
66	0x3d9cf640	0.07664156
67	0xbdf13f34	-0.11779633
68	0xbd187994	-0.03722532
69	0x3d1bd16a	0.03804151
70	0xbd81ad63	-0.06331899
71	0xbd86a679	-0.06574721
72	0xbd2ebf55	-0.042662937
73	0xbd6c1e0b	-0.05764584
74	0x3d331d98	0.043729395
75	0x3dd83c3e	0.10558365
76	0xbd24308f	-0.04008537
77	0xbd605448	-0.054767877
78	0x3ce8106e	0.028328147
79	0xbde21c08	-0.11040503
80	0x3cc61e0d	0.024184251
81	0xbd190a29	-0.037363205
82	0xbdfa1d0e	-0.12212573
83	0xbd21b20e	-0.039476447
84	0xbc9cc656	-0.019137543
85	0xbdfc7302	-0.123266235
86	0xbd13596c	-0.03597395
87	0xbd4657c4	-0.048423544
88	0xbd47a1b4	-0.048738196
89	0xbd78d284	-0.06074764
90	0x3cd3503a	0.025795091
91	0xbdd86926	-0.105669305
92	0xbc7f7300	-0.015591383
93	0x3d867c47	0.06566673
94	0xbded81a8	-0.115969956
95	0xbd46c7c0	-0.04853034
96	0xbda80bde	-0.082053885
97	0xbdc47c18	-0.095939815
98	0x3d27af73	0.040938806
99	0x3dc8fbc8	0.098136485
100	0x3ddf59de	0.10905813
101	0xbdee0aae	-0.11623131
102	0x3db80ffd	0.089874245
103	0xbde7cf68	-0.113188565
104	0xbd6b1251	-0.057390515
105	0xbe041f35	-0.1290253
106	0x3d36e6dc	0.04465376
107	0xbdcc9732	-0.09989776
108	0xbdca1de4	-0.098689824
109	0xbe179632	-0.14803389
110	0xbe03690b	-0.1283304
111	0xbc835e91	-0.016036304
112	0x3d2cb64c	0.04216604
113	0xbd9efd1a	-0.07763119
114	0xbda89b46	-0.08232741
115	0xbcc52e48	-0.02406992
116	0xbe03f7d0	-0.12887502
117	0x3d932889	0.07185466
118	0x3d072754	0.03299649
119	0x3dde8c0c	0.108665556
120	0x3db85e13	0.09002318
121	0x3cb91e28	0.022597387
122	0x3d17f45d	0.037098277
123	0xbde6d0e4	-0.112703115
124	0xbe1ec58e	-0.15505049
125	0xbdd3f97f	-0.10350322
126	0xbe081b82	-0.13291743
127	0xbdce7e46	-0.100826785
128	0xbc47e4b0	-0.012200519
129	0x3ccf4408	0.025300995
130	0x3d3aa6e8	0.04556933
131	0xbda40305	-0.080083884
132	0x3dc1a500	0.094552994
133	0xbdbd495f	-0.0924251
134	0x3d6ba271	0.057527963
135	0x3d963003	0.07333376
136	0xbda6a3c9	-0.08136708
137	0x3decf1a2	0.11569525
138	0xbca984c8	-0.020693198
139	0x3dd971d4	0.10617414
140	0xbe03d765	-0.12875135
141	0x3dd8713a	0.10568471
142	0xbdd31791	-0.10307229
143	0xbdbdd301	-0.092687614
144	0xbdfcf704	-0.12351802
145	0x3c57c51c	0.013169553
146	0xbce27f40	-0.027648568
147	0xbe157509	-0.14595427
148	0x3d7ad5d5	0.061239082
149	0xbce184b0	-0.02752909
150	0xbdefa5bf	-0.117015354
151	0xbe14facc	-0.14548796
152	0xbe16d040	-0.14727879
153	0x3c15ef70	0.009151325
154	0x3db828c4	0.089921504
155	0x3bd988b7	0.006638612
156	0xbda72c00	-0.08162689
157	0xbd867c64	-0.065666944
158	0x3d560c04	0.052257553
159	0x3d8f4050	0.069946885
160	0xbdddf55a	-0.10837813
161	0xbd361a47	-0.044458654
162	0xbe17845c	-0.14796585
163	0x3d4b2010	0.049591124
164	0xbdda58ae	-0.106614456
165	0xbdaeded6	-0.08538596
166	0x3d82b3d8	0.06381959
167	0xbdd751e8	-0.10513669
168	0x3b8addf0	0.004237883
169	0xbcf755db	-0.030192306
170	0xbd898814	-0.06715408
171	0x3dc007ee	0.093765125
172	0xbc9ad9d0	-0.01890269
173	0xbdbb8617	-0.09156435
174	0x3d0048cf	0.031319436
175	0x3d700234	0.05859585
176	0x3da69d5c	0.08135483
177	0xbdc39a74	-0.09550944
178	0x3de62968	0.11238366
179	0xbcbb1ecd	-0.022841835
180	0x3d972c8d	0.07381544
181	0xbe04095b	-0.12894194
182	0xbdd735da	-0.10508318
183	0xbcb75d87	-0.022383465
184	0x3d31fa41	0.04345155
185	0x3de525f8	0.111888826
186	0xbd24f527	-0.040272858
187	0x3dafc021	0.085815676
188	0xbe15f3f7	-0.14643846
189	0xbddb18a1	-0.10698057
190	0x3da46e7b	0.08028885
191	0x3d03564c	0.03206472
192	0x3dd02b5c	0.1016452
193	0xbc64ec20	-0.013972312
194	0x3bd107a0	0.006379083
195	0xbd4a0dc1	-0.049329523
196	0xbdf9ff55	-0.12206904
197	0xbd979d75	-0.074030794
198	0xbe10d935	-0.14145358
199	0xbd8cce96	-0.06875341
200	0xbe3667b5	-0.17812999
201	0x3d25d6e8	0.040488154
202	0x3d83b240	0.06430483
203	0xbda19984	-0.07890609
204	0xbcab5e39	-0.020918952
205	0x3cefae98	0.029258057
206	0x3db7329a	0.08945198
207	0xbdc7cdf7	-0.097560816
208	0x3d223621	0.039602403
209	0x3c73ab5b	0.014872397
210	0x3c586500	0.013207674
211	0xbdf42eda	-0.11922999
212	0x3c58c39b	0.01323023
213	0x3d4fa368	0.050692946
214	0xbe139d41	-0.14415456
215	0xbde394b7	-0.111123495
216	0xbd90cb31	-0.07070006
217	0x3dd51370	0.10404098
218	0x3d3f3910	0.04668528
219	0xbd863d34	-0.06554642
220	0xbddfe8a0	-0.109330416
221	0xbc161688	-0.009160645
222	0xbdb91f14	-0.09039131
223	0x3db7ea61	0.08980251
224	0xbdf43333	-0.11923828
225	0x3c14c1e3	0.009079429
226	0xbd5fedea	-0.054670252
227	0xbd3535a8	-0.044240624
228	0xbcc68228	-0.024231985
229	0xbd90309c	-0.070405215
230	0xbc0850f6	-0.008320084
231	0xbd14b558	-0.036305755
232	0xbe15d33b	-0.1463136
233	0x3d982267	0.07428437
234	0xbda4b2e8	-0.08041936
235	0x3d308623	0.043096673
236	0xbdc85c54	-0.09783235
237	0x3dbea941	0.09309626
238	0xbdf0ca02	-0.1175728
239	0xbbee3b96	-0.007270287
240	0x3d75b2d0	0.059984982
241	0xba989205	-0.0011640197
242	0x3dc59eb6	0.09649412
243	0xbe0996d1	-0.13436438
244	0xbddae259	-0.10687704
245	0x3caaf3da	0.02086823
246	0xbcc3bd68	-0.023894027
247	0x3c049432	0.008091973
248	0x3d9a2a52	0.07527603
249	0xbd3ebb7c	-0.046565518
250	0x3d7272b5	0.059191424
251	0xbdb7d3e5	-0.089759625
252	0x3d059893	0.03261621
253	0x3cde1cd0	0.027113348
254	0x3dad379e	0.08457874
255	0x3d258a50	0.04041511

layer3.bias f4 [5]
0	0xbdfc8d23	-0.12331607
1	0x3d3c5aa9	0.045984898
2	0xbb0e5500	-0.0021718144
3	0xbd8935e7	-0.06699734
4	0x3cadeaf1	0.021230193
